…
optimizer_config = dict()
lr_config = dict(
    policy='poly',
    warmup='linear',
    warmup_iters=1500,
    warmup_ratio=1e-06,
    power=1.0,
    min_lr=0.0,
    by_epoch=False)
runner = dict(type='IterBasedRunner', max_iters=160000)
checkpoint_config = dict(by_epoch=False, interval=16000)
evaluation = dict(interval=4000, metric='mIoU')
work_dir = './work_dirs/upernet_ppma_base_1024x1024_160k_cityscapes_ss'
gpu_ids = range(0, 1)
device = 'cuda'

2025-06-05 13:14:06,943 - mmseg - INFO - EncoderDecoder(
  (backbone): ppma_base(
    (patch_embed): PatchEmbed(
      (proj): Sequential(
        (0): Conv2d(3, 40, kernel_size=(3, 3), stride=(2, 2), padding=(1, 1))
        (1): BatchNorm2d(40, eps=1e-05, momentum=0.1, affine=True, track_running_stats=True)
        (2): GELU(approximate='none')
        (3): Conv2d(40, 40, kernel_size=(3, 3), stride=(1, 1), padding=(1, 1))
        (4): BatchNorm2d(40, eps=1e-05, momentum=0.1, affine=True, track_running_stats=True)
        (5): GELU(approximate='none')
        (6): Conv2d(40, 80, kernel_size=(3, 3), stride=(2, 2), padding=(1, 1))
        (7): BatchNorm2d(80, eps=1e-05, momentum=0.1, affine=True, track_running_stats=True)
        (8): GELU(approximate='none')
        (9): Conv2d(80, 80, kernel_size=(3, 3), stride=(1, 1), padding=(1, 1))
        (10): BatchNorm2d(80, eps=1e-05, momentum=0.1, affine=True, track_running_stats=True)
      )
    )
    (layers): ModuleList(
      (0): BasicLayer(
        (Relpos): RotaryPositionEmbedding2D()
        (blocks): ModuleList(
          (0-3): 4 x BasicBlock(
            (retention_layer_norm): LayerNorm((80,), eps=1e-06, elementwise_affine=True)
            (retention): MambaAttentionChunkDouble(
              (q_proj): Linear(in_features=80, out_features=80, bias=True)
              (k_proj): Linear(in_features=80, out_features=80, bias=True)
              (v_proj): Linear(in_features=80, out_features=80, bias=True)
              (lepe): DWConv2d(
                (conv): Conv2d(80, 80, kernel_size=(5, 5), stride=(1, 1), padding=(2, 2), groups=80)
              )
              (out_proj): Linear(in_features=80, out_features=80, bias=True)
              (path_embed): PathEmbeding2D(
                (dt_linear): Linear(in_features=16, out_features=2, bias=False)
              )
            )
            (drop_path): DropPath()
            (final_layer_norm): LayerNorm((80,), eps=1e-06, elementwise_affine=True)
            (ffn): FeedForwardNetwork(
              (activation_dropout_module): Dropout(p=0.0, inplace=False)
              (dropout_module): Dropout(p=0.0, inplace=False)
              (fc1): Linear(in_features=80, out_features=320, bias=True)
              (fc2): Linear(in_features=320, out_features=80, bias=True)
              (dwconv): DWConv2d(
                (conv): Conv2d(320, 320, kernel_size=(3, 3), stride=(1, 1), padding=(1, 1), groups=320)
              )
            )
            (pos): DWConv2d(
              (conv): Conv2d(80, 80, kernel_size=(3, 3), stride=(1, 1), padding=(1, 1), groups=80)
            )
          )
        )
        (downsample): PatchMerging(
          (reduction): Conv2d(80, 160, kernel_size=(3, 3), stride=(2, 2), padding=(1, 1))
          (norm): BatchNorm2d(160, eps=1e-05, momentum=0.1, affine=True, track_running_stats=True)
        )
      )
      (1): BasicLayer(
        (Relpos): RotaryPositionEmbedding2D()
        (blocks): ModuleList(
          (0-7): 8 x BasicBlock(
            (retention_layer_norm): LayerNorm((160,), eps=1e-06, elementwise_affine=True)
            (retention): MambaAttentionChunkDouble(
              (q_proj): Linear(in_features=160, out_features=160, bias=True)
              (k_proj): Linear(in_features=160, out_features=160, bias=True)
              (v_proj): Linear(in_features=160, out_features=160, bias=True)
              (lepe): DWConv2d(
                (conv): Conv2d(160, 160, kernel_size=(5, 5), stride=(1, 1), padding=(2, 2), groups=160)
              )
              (out_proj): Linear(in_features=160, out_features=160, bias=True)
              (path_embed): PathEmbeding2D(
                (dt_linear): Linear(in_features=32, out_features=2, bias=False)
              )
            )
            (drop_path): DropPath()
            (final_layer_norm): LayerNorm((160,), eps=1e-06, elementwise_affine=True)
            (ffn): FeedForwardNetwork(
              (activation_dropout_module): Dropout(p=0.0, inplace=False)
              (dropout_module): Dropout(p=0.0, inplace=False)
              (fc1): Linear(in_features=160, out_features=640, bias=True)
              (fc2): Linear(in_features=640, out_features=160, bias=True)
              (dwconv): DWConv2d(
                (conv): Conv2d(640, 640, kernel_size=(3, 3), stride=(1, 1), padding=(1, 1), groups=640)
              )
            )
            (pos): DWConv2d(
              (conv): Conv2d(160, 160, kernel_size=(3, 3), stride=(1, 1), padding=(1, 1), groups=160)
            )
          )
        )
        (downsample): PatchMerging(
          (reduction): Conv2d(160, 320, kernel_size=(3, 3), stride=(2, 2), padding=(1, 1))
          (norm): BatchNorm2d(320, eps=1e-05, momentum=0.1, affine=True, track_running_stats=True)
        )
      )
      (2): BasicLayer(
        (Relpos): RotaryPositionEmbedding2D()
        (blocks): ModuleList(
          (0-24): 25 x BasicBlock(
            (retention_layer_norm): LayerNorm((320,), eps=1e-06, elementwise_affine=True)
            (retention): MambaAttentionChunkDouble(
              (q_proj): Linear(in_features=320, out_features=320, bias=True)
              (k_proj): Linear(in_features=320, out_features=320, bias=True)
              (v_proj): Linear(in_features=320, out_features=320, bias=True)
              (lepe): DWConv2d(
                (conv): Conv2d(320, 320, kernel_size=(5, 5), stride=(1, 1), padding=(2, 2), groups=320)
              )
              (out_proj): Linear(in_features=320, out_features=320, bias=True)
              (path_embed): PathEmbeding2D(
                (dt_linear): Linear(in_features=32, out_features=2, bias=False)
              )
            )
            (drop_path): DropPath()
            (final_layer_norm): LayerNorm((320,), eps=1e-06, elementwise_affine=True)
            (ffn): FeedForwardNetwork(
              (activation_dropout_module): Dropout(p=0.0, inplace=False)
              (dropout_module): Dropout(p=0.0, inplace=False)
              (fc1): Linear(in_features=320, out_features=960, bias=True)
              (fc2): Linear(in_features=960, out_features=320, bias=True)
              (dwconv): DWConv2d(
                (conv): Conv2d(960, 960, kernel_size=(3, 3), stride=(1, 1), padding=(1, 1), groups=960)
              )
            )
            (pos): DWConv2d(
              (conv): Conv2d(320, 320, kernel_size=(3, 3), stride=(1, 1), padding=(1, 1), groups=320)
            )
          )
        )
        (downsample): PatchMerging(
          (reduction): Conv2d(320, 512, kernel_size=(3, 3), stride=(2, 2), padding=(1, 1))
          (norm): BatchNorm2d(512, eps=1e-05, momentum=0.1, affine=True, track_running_stats=True)
        )
      )
      (3): BasicLayer(
        (Relpos): RotaryPositionEmbedding2D()
        (blocks): ModuleList(
          (0-7): 8 x BasicBlock(
            (retention_layer_norm): LayerNorm((512,), eps=1e-06, elementwise_affine=True)
            (retention): MambaAttentionAllDouble(
              (q_proj): Linear(in_features=512, out_features=512, bias=True)
              (k_proj): Linear(in_features=512, out_features=512, bias=True)
              (v_proj): Linear(in_features=512, out_features=512, bias=True)
              (lepe): DWConv2d(
                (conv): Conv2d(512, 512, kernel_size=(5, 5), stride=(1, 1), padding=(2, 2), groups=512)
              )
              (out_proj): Linear(in_features=512, out_features=512, bias=True)
              (path_embed): PathEmbeding2D(
                (dt_linear): Linear(in_features=32, out_features=2, bias=False)
              )
            )
            (drop_path): DropPath()
            (final_layer_norm): LayerNorm((512,), eps=1e-06, elementwise_affine=True)
            (ffn): FeedForwardNetwork(
              (activation_dropout_module): Dropout(p=0.0, inplace=False)
              (dropout_module): Dropout(p=0.0, inplace=False)
              (fc1): Linear(in_features=512, out_features=1536, bias=True)
              (fc2): Linear(in_features=1536, out_features=512, bias=True)
              (dwconv): DWConv2d(
                (conv): Conv2d(1536, 1536, kernel_size=(3, 3), stride=(1, 1), padding=(1, 1), groups=1536)
              )
            )
            (pos): DWConv2d(
              (conv): Conv2d(512, 512, kernel_size=(3, 3), stride=(1, 1), padding=(1, 1), groups=512)
            )
          )
        )
      )
    )
    (outnorm0): LayerNorm((80,), eps=1e-05, elementwise_affine=True)
    (outnorm1): LayerNorm((160,), eps=1e-05, elementwise_affine=True)
    (outnorm2): LayerNorm((320,), eps=1e-05, elementwise_affine=True)
    (outnorm3): LayerNorm((512,), eps=1e-05, elementwise_affine=True)
  )
  (decode_head): UPerHead(
    input_transform=multiple_select, ignore_index=255, align_corners=False
    (loss_decode): CrossEntropyLoss(avg_non_ignore=False)
    (conv_seg): Conv2d(512, 150, kernel_size=(1, 1), stride=(1, 1))
    (dropout): Dropout2d(p=0.1, inplace=False)
    (psp_modules): PPM(
      (0): Sequential(
        (0): AdaptiveAvgPool2d(output_size=1)
        (1): ConvModule(
          (conv): Conv2d(512, 512, kernel_size=(1, 1), stride=(1, 1), bias=False)
          (bn): SyncBatchNorm(512, eps=1e-05, momentum=0.1, affine=True, track_running_stats=True)
          (activate): ReLU(inplace=True)
        )
      )
      (1): Sequential(
        (0): AdaptiveAvgPool2d(output_size=2)
        (1): ConvModule(
          (conv): Conv2d(512, 512, kernel_size=(1, 1), stride=(1, 1), bias=False)
          (bn): SyncBatchNorm(512, eps=1e-05, momentum=0.1, affine=True, track_running_stats=True)
          (activate): ReLU(inplace=True)
        )
      )
      (2): Sequential(
        (0): AdaptiveAvgPool2d(output_size=3)
        (1): ConvModule(
          (conv): Conv2d(512, 512, kernel_size=(1, 1), stride=(1, 1), bias=False)
          (bn): SyncBatchNorm(512, eps=1e-05, momentum=0.1, affine=True, track_running_stats=True)
          (activate): ReLU(inplace=True)
        )
      )
      (3): Sequential(
        (0): AdaptiveAvgPool2d(output_size=6)
        (1): ConvModule(
          (conv): Conv2d(512, 512, kernel_size=(1, 1), stride=(1, 1), bias=False)
          (bn): SyncBatchNorm(512, eps=1e-05, momentum=0.1, affine=True, track_running_stats=True)
          (activate): ReLU(inplace=True)
        )
      )
    )
    (bottleneck): ConvModule(
      (conv): Conv2d(2560, 512, kernel_size=(3, 3), stride=(1, 1), padding=(1, 1), bias=False)
      (bn): SyncBatchNorm(512, eps=1e-05, momentum=0.1, affine=True, track_running_stats=True)
      (activate): ReLU(inplace=True)
    )
    (lateral_convs): ModuleList(
      (0): ConvModule(
        (conv): Conv2d(80, 512, kernel_size=(1, 1), stride=(1, 1), bias=False)
        (bn): SyncBatchNorm(512, eps=1e-05, momentum=0.1, affine=True, track_running_stats=True)
        (activate): ReLU()
      )
      (1): ConvModule(
        (conv): Conv2d(160, 512, kernel_size=(1, 1), stride=(1, 1), bias=False)
        (bn): SyncBatchNorm(512, eps=1e-05, momentum=0.1, affine=True, track_running_stats=True)
        (activate): ReLU()
      )
      (2): ConvModule(
        (conv): Conv2d(320, 512, kernel_size=(1, 1), stride=(1, 1), bias=False)
        (bn): SyncBatchNorm(512, eps=1e-05, momentum=0.1, affine=True, track_running_stats=True)
        (activate): ReLU()
      )
    )
    (fpn_convs): ModuleList(
      (0-2): 3 x ConvModule(
        (conv): Conv2d(512, 512, kernel_size=(3, 3), stride=(1, 1), padding=(1, 1), bias=False)
        (bn): SyncBatchNorm(512, eps=1e-05, momentum=0.1, affine=True, track_running_stats=True)
        (activate): ReLU()
      )
    )
    (fpn_bottleneck): ConvModule(
      (conv): Conv2d(2048, 512, kernel_size=(3, 3), stride=(1, 1), padding=(1, 1), bias=False)
      (bn): SyncBatchNorm(512, eps=1e-05, momentum=0.1, affine=True, track_running_stats=True)
      (activate): ReLU(inplace=True)
    )
  )
  init_cfg={'type': 'Normal', 'std': 0.01, 'override': {'name': 'conv_seg'}}
  (auxiliary_head): FCNHead(
    input_transform=None, ignore_index=255, align_corners=False
    (loss_decode): CrossEntropyLoss(avg_non_ignore=False)
    (conv_seg): Conv2d(256, 150, kernel_size=(1, 1), stride=(1, 1))
    (dropout): Dropout2d(p=0.1, inplace=False)
    (convs): Sequential(
      (0): ConvModule(
        (conv): Conv2d(320, 256, kernel_size=(3, 3), stride=(1, 1), padding=(1, 1), bias=False)
        (bn): SyncBatchNorm(256, eps=1e-05, momentum=0.1, affine=True, track_running_stats=True)
        (activate): ReLU(inplace=True)
      )
    )
  )
  init_cfg={'type': 'Normal', 'std': 0.01, 'override': {'name': 'conv_seg'}}
)
2025-06-05 13:14:06,983 - mmseg - INFO - Loaded 2975 images
2025-06-05 13:14:09,464 - mmseg - INFO - Loaded 500 images
…
